learning/model.tflite (tflite, 1304 bytes, 2 tensors)

sequential/dense/MatMul i1 [8, 1] scale=0.0060163247 zero_point=0
-0.7099263 -0.15642445 -0.463257 0.76407325 -0.481306 0.6016325 0.3609795 0.2647183
00000000: 8ae6 b37f b064 3c2c

sequential/dense_1/MatMul i1 [1, 8] scale=0.0055096983 zero_point=0
0.49036315 0.61708623 -0.17080064 -0.5950474 0.08815517 0.5730086 0.6997317 0.5730086
00000000: 5970 e194 1068 7f68
